recepts_pytorch/lr.pth (torch, 2362 bytes, 1 tensors)

weight f4 [1, 40]
0	0x3da4257e	0.080149636
1	0x3e162fbb	0.14666645
2	0x3d01ff59	0.03173766
3	0x3e2ea5b9	0.17055406
4	0x3c2d5e7c	0.010581609
5	0x3e4bfb8b	0.19920175
6	0xbcded767	-0.027202321
7	0xbd705328	-0.058673054
8	0x3d93d553	0.07218423
9	0xbe30cb97	-0.17265163
10	0x3e41b845	0.1891795
11	0xbd1f9ec2	-0.038969763
12	0x3e50b997	0.20383297
13	0x3d8ad739	0.06779332
14	0xbc960508	-0.018312946
15	0xbde07e6c	-0.10961613
16	0x3d9fa05c	0.07794258
17	0x3e13111e	0.14361998
18	0xbdab6083	-0.083680175
19	0xbd2891cc	-0.041154668
20	0x3d9d3327	0.07675772
21	0x3cd9fea3	0.026610678
22	0xbdb74a99	-0.08949775
23	0x3c85fae0	0.016354978
24	0xbc67d5b7	-0.014150075
25	0xbdfe2013	-0.124084614
26	0xbdb7f251	-0.08981765
27	0xbe712ed0	-0.23553014
28	0xbe070b13	-0.13187818
29	0xbe0dbf9e	-0.13842627
30	0xbd7565ac	-0.059911415
31	0xbce0f81d	-0.02746206
32	0xbcd29902	-0.025707725
33	0x3cc71c9f	0.02430564
34	0xbd0c2160	-0.034211516
35	0x3e21cd7e	0.15801045
36	0x3d3b93c1	0.045795206
37	0x3bd8e144	0.0066186506
38	0xbdfe5817	-0.124191456
39	0x38d210c2	0.00010016702
