recepts_pytorch/lr_1.pth (torch, 23810 bytes, 11 tensors)

weight f4 [16, 40]
00000000: efcb b43c a996 bcbd 6282 473d 80d1 4fbd
00000010: 6cce 133e f29e 0cbe 5db7 4cbd 7e63 1cbe
00000020: a3de 7ebd 12f6 4b3d 49d0 1b3e 0040 d93c
00000030: c6ae 1e3e 8567 fe3c d70f bb3d d9be 013e
00000040: 234c 073e f823 b5bd 8aef 143e 333f c43d
00000050: 5560 97bd d486 9abd 04d8 07be e639 223d
00000060: 233c 03be 04c2 883d 0774 4c3d ea9e 0cbe
00000070: 7e8b 303d 4972 50bc cb03 943d ffe4 b93d
00000080: d5f9 20be 3088 143e 43d4 073e accb 803d
00000090: 5ef8 13be 5fc3 67bd 34fb 3bbd 9c73 26bd
000000a0: c1ac b63d 8c94 6b3d 8643 003e 1de9 72bd
000000b0: 8d1a 5a3d 7969 663d 42e1 06be 7f39 1dbe
000000c0: c3f8 a7bd ee6f dd3d 0396 18be 4c10 0dbe
000000d0: 212c b53d 72cf ae3d 0638 053e 3c61 f4bd
000000e0: fa2b edbd 5259 a63d d4c4 0c3e c5fb c13d
000000f0: b6dd ca3c 84a2 553d b695 193e 2a34 d1bd
00000100: 0424 93bd 059b e23d 10c1 ddbd 626b b2bd
00000110: 924b ec3d 7d6b 4c3d 5b5e 513d 4f07 89bd
00000120: 3de3 05bb 702d 143e d409 c2bd 79f4 9a3a
00000130: 814a 9a3d 4cab dfbd 6a2d 1d3e ad9a a1bd
00000140: c184 1bbd 4c07 2fbd 06ee d2bd c6ed 1ebe
00000150: b3c6 b63d 0ce7 2b3d 98bd 17be 086e d0bd
00000160: 620a 203e 2743 773d f30d 823d b4cc c1bd
00000170: 8915 8ebd 9ebc c2bc b324 ecbc 1516 debd
00000180: 8b10 553c 1384 813c 801b a5bc ec89 b33c
00000190: 6c67 80bd dabe 283d d971 743d 9ad8 aabd
000001a0: 928b 20be 486c a93d 8187 1a3d d692 a4bd
000001b0: 9c06 1c3e 1b45 92bd a803 db3d 7489 a43d
000001c0: c0ad 07be bad7 d03d 47e1 14be 1996 b3bd
000001d0: 069d d7bc 9c49 dabd 681b 1e3e 4fa4 01bd
000001e0: 079a 803d fc95 10be fd58 ba3d 728f 49bd
000001f0: 1872 f6bd 5cbb bd3c 64e4 9c3d fb11 0c3e
00000200: e8be c5bd b760 9fbd 7fa0 f83c e487 2f3d
00000210: 6e38 793d 2daa b13d 60da 12bd 5625 b43d
00000220: 10be ee3d e0ed 28bd 3c8d e63d 0959 9e3d
00000230: 62d3 0e3e bfd5 b7bd d8ed 9fbd e239 3bbd
00000240: 5515 043c f07c c23d 72e4 b8bd cc1a a23d
00000250: 1962 68bd 4a68 c33d 75b1 f4bb 6ddc 0dbe
00000260: ec2a b2bd 207f eabd 9ec3 a03d 8d50 d9bd
00000270: 29ba 56bc 1bc8 0b3d ce72 b1bd 7915 3b3d
00000280: 930f 1ebe a6c2 e7bd 1da8 12be 9801 44bd
00000290: fd1b 6cbd b448 b93c eb56 efbc 46fa 973d
000002a0: e46f 143e c037 683d 2c46 7fbd 2a9b 17be
000002b0: 6d7c 6a3d c38f a0bd 7dc0 a43d cc87 d83d
000002c0: 2aab 793d 64e5 173e 10e0 193e 2739 093d
000002d0: 2dea ebbd eeac 103e ffba 99bd 5cdd 98bd
000002e0: 377f 073e 88e3 fa3d bf80 433d 6d69 223c
000002f0: fd2f 08be cfb0 86bc 5b4e 1b3e 05ff 243d
00000300: a2ae 5d3c 5880 06bd 93b7 61bd d422 c13d
00000310: fa1c 203c 86a1 d23d 4a12 e5bc 3072 8d3d
00000320: 9fc4 853d 4d47 cf3c 9fc1 cb3d cad0 ca3d
00000330: 5b37 163e d80c f93d 4f26 26bd 1a42 09be
00000340: 991f ed3c 6897 caba 9fe3 28bd be0d dabc
00000350: bfa8 ef3b e577 ec3d cbde 4a3d c38c 66bd
00000360: 2d6f 85bd e6d9 1fbd 679c 7bbd f291 113e
00000370: 3d43 ab3d 975e 123e ce66 1a3a b626 013d
00000380: f311 603d 3460 19be e320 663c bd9f 2bbc
00000390: 8282 b5bd ed2d fbbd ec68 0f3e 8ff5 033e
000003a0: b99e 963d f376 1a3e 5041 83bd 90e7 dfbc
000003b0: 0abd 753d bef7 d5bc c8d9 febc e9b7 05be
000003c0: 4e04 2e3d 3dc0 c3bd 2404 bb3b 79d7 1d3e
000003d0: ef57 47bd 6879 4cbd dc5b c33d fab8 6dbd
000003e0: 4b40 5ebc af33 173e 418d 84bd cc84 e7bd
000003f0: e52c b5bd b952 33bd 28c7 99bd e70d a8bd
0.0220699 -0.09208424 0.048708327 -0.050736904 0.14434212 -0.13732508 -0.049979556 -0.15272328
-0.06222404 0.049795218 0.15216173 0.026519775 0.15496358 0.031055221 0.091338806 0.12670459
0.13212638 -0.08844751 0.14544502 0.09582367 -0.07391421 -0.07545248 -0.13265997 0.039605998
-0.12815909 0.066776305 0.04991534 -0.13732496 0.04310178 -0.01272256 0.07227286 0.09076881
-0.15720303 0.14505076 0.13264565 0.06288847 -0.14450213 -0.056582805 -0.045893863 -0.040637597
0.08919669 0.057514712 0.12525758 -0.059304345 0.053247977 0.05625293 -0.13171867 -0.15353964
-0.082017444 0.108123645 -0.14900975 -0.13775748 0.088463075 0.08535661 0.13009652 -0.119326085
-0.115806535 0.08122505 0.13746959 0.09471849 0.024763923 0.05215694 0.14998516 -0.10215028
-0.07184604 0.11064724 -0.108278394 -0.08711888 0.115378514 0.049907196 0.051115375 -0.06690847
-0.0020429634 0.14470458 -0.09474531 0.0011822126 0.07533742 -0.10921344 0.15349355 -0.0789083
-0.0379684 -0.04273157 -0.102993056 -0.15520391 0.089246176 0.04196839 -0.14818418 -0.10177237
0.1562896 0.060366776 0.06350317 -0.09462872 -0.06937701 -0.02377158 -0.028826093 -0.108440556
0.013004432 0.015810048 -0.020154715 0.021916352 -0.06269726 0.041197635 0.059678886 -0.08342095
-0.15678242 0.08272606 0.037726883 -0.08035819 0.15236896 -0.07142087 0.10694057 0.080340296
-0.13249874 0.101973966 -0.14539061 -0.08768863 -0.026319992 -0.10658571 0.15440142 -0.031650838
0.062793784 -0.14119714 0.090990044 -0.049209066 -0.120334804 0.023160629 0.076607496 0.13678734
-0.09655553 -0.07782119 0.030349968 0.042854205 0.06084483 0.086750366 -0.03585279 0.08796184
0.11657345 -0.04124248 0.11257407 0.07731826 0.13947824 -0.08976316 -0.07809037 -0.0457095
0.008061727 0.09496486 -0.090279475 0.07915267 -0.05673418 0.09541376 -0.0074674436 -0.13853617
-0.08699593 -0.114500284 0.07849811 -0.10611067 -0.0131059075 0.034126382 -0.086644754 0.045674775
-0.15435629 -0.11316423 -0.14321943 -0.047853082 -0.05764388 0.022617675 -0.02921625 0.07420783
0.14495808 0.056693792 -0.06232278 -0.14805284 0.057247568 -0.0783992 0.08044527 0.10572776
0.06095425 0.148336 0.1502688 0.03350177 -0.11519275 0.14128467 -0.0750637 -0.07464096
0.13232122 0.122504294 0.047730204 0.009912831 -0.13299556 -0.01644173 0.15166609 0.040282268
0.013530405 -0.032837242 -0.05510671 0.09430471 0.009772534 0.102847144 -0.027962822 0.06906545
0.06531643 0.025302554 0.0994904 0.099031046 0.14669554 0.12160653 -0.040563878 -0.13404122
0.028945731 -0.00154565 -0.0412327 -0.02661788 0.0073138173 0.115463056 0.04952888 -0.056286585
-0.06515346 -0.039026164 -0.061428454 0.1421583 0.08362434 0.14293896 0.0005889953 0.03153106
0.054704618 -0.14978105 0.014045927 -0.010475096 -0.08862783 -0.12264619 0.14004868 0.12886642
0.07354493 0.15084438 -0.06408942 -0.027332097 0.059994735 -0.02611911 -0.031109706 -0.13058437
0.042484574 -0.09558151 0.0057072807 0.15414228 -0.048667844 -0.04992047 0.09539005 -0.058037736
-0.013565133 0.1476581 -0.064722545 -0.11304626 -0.088464536 -0.043780062 -0.07508689 -0.08205777

bias f4 [16]
00000000: d1d7 853c e67a 7b3c f475 b43c 9d7e 08be
00000010: d7d3 19be 79a3 953d 73c0 0a3e 47b6 0fbe
00000020: 890d 703d 8ecc edbd 94fe 253c 90c2 163e
00000030: 078a f53d 25e6 ecbd f85a c83d bd3d a93d
0.01633826 0.0153491255 0.0220289 -0.13329549 -0.15022217 0.073065706 0.13549976 -0.14034377
0.058606658 -0.11611281 0.010131497 0.14722657 0.11989217 -0.11567334 0.09782976 0.08263729

weight f4 [32, 16]
00000000: 000c c9b9 7afe 773e 8c5a cbbd 104d 6ebd
00000010: d262 01be b059 133d 2092 873d 602f a33c
00000020: fc08 10be 387c e6bd 7828 ae3d b277 60be
00000030: e078 1fbd 4077 b5bb a471 cfbd 7853 ba3d
00000040: 2009 843c 6bbf 333e 48c3 b5bc 038f 21be
00000050: 63dc 343e 021a 0f3d 4386 92bd c7b7 28be
00000060: f826 703d 3419 74be 36ef 863d 3d53 fd3d
00000070: 7b8a 60be f996 27be d20b 38be 5932 573e
00000080: 4ea0 593e bf10 803c 1761 703e 5621 abbd
00000090: 167c 78be e6ef b23d f86c b53d 6d04 7b3e
000000a0: 7e52 6db8 be3d 443e e1fa 1c3e 1c65 393e
000000b0: 4308 7ebe 74cb 523e 5a3a 5abe 2a8c 653e
000000c0: 396f 29bc 80cf 62be b96e 8e3d f05e 50bd
000000d0: 18ec 65be d38c b9bd 3479 d33c 6a6a 473e
000000e0: fc4f 9dbd 7031 183e ae59 003d 384b 0b3c
000000f0: 7a40 443d 52fd 27be 75c9 54be 0eaf a0bd
00000100: fc8d 6ebe d8d6 eebd 6950 3c3c 13a2 28be
00000110: 9d65 d4bd 7333 38bd 328f ecbc d450 0dbe
00000120: 8367 443c 5907 10bd ed5a 923d 5691 373c
00000130: 8fbd ffbd 2352 b0bd 8d4a 3ebb 68c1 1fbe
00000140: 007e a03c 3657 90bc 7db9 c63d 844f 723d
00000150: 6e97 3f3e 12b5 05bc 1421 3dbe a4ea e43d
00000160: ceff 2cbe 0797 0cbd a8c1 a5bd a631 c2bd
00000170: 435f bdbd f834 6b3e 5894 123e 66fa 8d3d
00000180: 765f 703e a404 68be 193d 253d 8dca 233e
00000190: adde 293e 71bd 4bbe b220 b63d a2d8 11be
000001a0: 2145 20bc ccc9 55bd 9dca 55be a04c 74be
000001b0: e86f 28be 7c39 e83d a82e ea3d b2aa 5ebe
000001c0: 8d3e c0bd 3697 863b 6051 5dbe 4839 103e
000001d0: 2cd1 673e 7924 353d 3836 3ebe 42dd 6e3d
000001e0: 9fe4 b93d e5bf 4a3e bc35 08be 405e 65be
000001f0: 5306 e13d 96ea 7e3c b8d2 a6bd ad71 d6bd
00000200: 38f7 03be 725a 4f3e 909a 30bd 46c0 383e
00000210: 92be 643e 0ffa 013d a84f 5a3d 4b38 8bbc
00000220: a4e7 2f3e b2ad 66be bcac cb3d a87a 26bd
00000230: 0ce1 e93d 4c24 8fba e483 bdbd 38b3 dcbc
00000240: f83c 0a3e b6cc 31be 40d1 21be 505f 65bd
00000250: 08b7 b9bd 3822 c93d c047 2c3e 8056 dbbc
00000260: 2011 723e 80ec d5bd 24a8 0fbe 2838 e5bd
00000270: 7e60 30be 6670 33be 9819 64be 32e3 62be
00000280: 96b1 853d 5b43 1c3e e361 703e 5e29 5a3e
00000290: d661 69bc 3c2d 473d fb0a 19be 0bff c53d
000002a0: d05f 75be 40b0 f13d e627 3c3d f7a3 9d3d
000002b0: 44a5 bb3d f0eb eabd e4b7 5b3e da80 f43d
000002c0: 282e 283e ae53 073d 5ad3 203e f64a 2c3e
000002d0: 655b e83d 5e17 433e 1caa 39bd 6c62 283e
000002e0: 5fde 6b3d 9314 1a3e c85f 793e 960d 683d
000002f0: aefe bdbd edb3 cbbc e02c 903d 1edf 2c3d
00000300: 37d1 8bbd 62a0 483e 52d6 193e ee03 1fbe
00000310: f6c6 a6bc 675c c4bc 6e71 20be 3f84 153d
00000320: bb21 9dbd 161a 04be d0a1 a4bd b589 b6bd
00000330: 4cfd 743e 2c73 c43d c0f2 7b3e 618c 8c3d
00000340: 41fc 673d 62b4 d23d 18bd 2f3d 1ccd 48be
00000350: 1856 17be b5e9 77bd 31f5 7b3b e9e5 c03d
00000360: 925d c53d 4e22 4b3e e5a5 503d 9b7b aebd
00000370: 8e75 40be 5c7b 3bbe 23e7 18be f782 9a3d
00000380: 4645 0a3e 98e4 5f3e ca1e a2bd 3acd a1bc
00000390: 5f71 98bd 6b00 88ba 963b a43d 60d1 b6bb
000003a0: e22d 3d3c 173d 013d 968a be3d 628c 9bbd
000003b0: e8b8 18be 7380 713d 28ac f2bc 462e e8bd
000003c0: d007 d73d 4627 153b aef0 14bd d4d9 f7bd
000003d0: 38b9 06bd e8ae 59be 22f6 683d a645 763b
000003e0: 1e5a 1b3e 3256 843c d3be a33c 8e7b 8b3d
000003f0: d3cf 423e 14f3 f1bd 54d5 183e 517d 7a3d
-0.00038346648 0.24218169 -0.0992938 -0.05817896 -0.12635353 0.035974205 0.06619668 0.019920051
-0.14065927 -0.112541616 0.085038126 -0.2192066 -0.038933635 -0.0055378973 -0.10129097 0.09097952
0.016117632 0.17553489 -0.022187844 -0.15777211 0.17662196 0.034936912 -0.07154515 -0.16476355
0.058630913 -0.23837739 0.065885946 0.12369392 -0.21927826 -0.16366185 -0.17973259 0.210153
0.21252558 0.015632985 0.23474537 -0.08355968 -0.24266085 0.08737163 0.08858675 0.24513407
-5.658203e-05 0.19164178 0.15330078 0.18104976 -0.24807839 0.20585424 -0.21311322 0.2241675
-0.010341459 -0.22149467 0.069547124 -0.05087179 -0.22453344 -0.09060063 0.02581463 0.19474187
-0.076812714 0.14862609 0.031335525 0.00850182 0.047913052 -0.16405228 -0.20779975 -0.07845889
-0.2329635 -0.11662072 0.011493781 -0.16468076 -0.10370944 -0.04497094 -0.028876875 -0.13800365
0.01198757 -0.035163257 0.07146249 0.011204084 -0.12487327 -0.08609416 -0.0029036135 -0.15601122
0.019591331 -0.01761971 0.09703348 0.059157863 0.1871011 -0.008160846 -0.1846965 0.11177567
-0.16894457 -0.03432372 -0.080935776 -0.09482126 -0.09246685 0.22969425 0.14314401 0.06932525
0.23473915 -0.2265802 0.04034147 0.15995236 0.1658885 -0.19896485 0.08892955 -0.14242795
-0.009782107 -0.0521944 -0.20878072 -0.23857355 -0.16448939 0.11339089 0.1143468 -0.21744803
-0.093869306 0.004107381 -0.21613073 0.14084351 0.22638386 0.044224236 -0.1857537 0.058316477
0.09076809 0.19799764 -0.13301748 -0.22399235 0.109875344 0.015558859 -0.0814566 -0.10470901
-0.12887275 0.20249346 -0.043116152 0.18042096 0.22338322 0.031732615 0.053298622 -0.016994616
0.17178208 -0.22527197 0.09945056 -0.040644318 0.114198774 -0.0010920851 -0.09253672 -0.026940927
0.1349982 -0.17363247 -0.15802479 -0.0559991 -0.090681136 0.0982098 0.16824245 -0.026774645
0.23639345 -0.104454994 -0.14028984 -0.111923516 -0.17224309 -0.17523345 -0.22275388 -0.2215698
0.065280125 0.15260069 0.23474841 0.21304843 -0.014244517 0.048627123 -0.14945595 0.09667786
-0.23962331 0.11801195 0.045936488 0.076972894 0.09162381 -0.11470783 0.21456867 0.11938639
0.16423857 0.033038788 0.15705624 0.1682547 0.11345557 0.19051883 -0.045328245 0.16443795
0.057585116 0.15046911 0.24352944 0.05665358 -0.09277092 -0.024866069 0.07039809 0.04220497
-0.06827014 0.19592431 0.15023163 -0.15528843 -0.020358544 -0.023969842 -0.1566827 0.036503073
-0.07672449 -0.12900576 -0.08038676 -0.08912984 0.2392475 0.0959228 0.2460432 0.06862713
0.056637052 0.102883115 0.042904943 -0.19609493 -0.14778936 -0.060525615 0.0038445706 0.09418852
0.09636988 0.19837305 0.05093946 -0.085196696 -0.18794844 -0.18308777 -0.14931922 0.07544511
0.13502988 0.21864545 -0.07916029 -0.01975118 -0.07443499 -0.0010376101 0.080191776 -0.0055791587
0.011546584 0.0315524 0.09303777 -0.07595135 -0.14914286 0.05896039 -0.029623106 -0.11336951
0.10499537 0.0022759004 -0.036362343 -0.12102094 -0.032891482 -0.21258128 0.056875356 0.0037578135
0.15171096 0.016154382 0.019988453 0.068106756 0.19024591 -0.118139416 0.14925128 0.061154667

bias f4 [32]
00000000: 1e21 4bbe 9934 013e 4810 1fbe 3e40 103e
00000010: 4b36 3e3e a541 a23d ebea 4e3e 28be 28be
00000020: b2b6 64be 3425 76be d321 213e 568b b33d
00000030: 7e5a 3bbe c079 f83d 0d58 693e 126c 7cbe
00000040: e16c 393e d4d3 1e3d 6d62 be3c 3653 663e
00000050: f127 683e c9ea d83d c150 4a3e c9e9 d53d
00000060: 4e84 263d eed8 60be 482d 3f3d ba0a 36be
00000070: 27a3 9d3d ac79 333d 90bc ad3b 360e 2fbe
-0.19836852 0.1261772 -0.15533555 0.14087006 0.18575399 0.07922677 0.20206802 -0.16478789
-0.22335318 -0.2403763 0.15735559 0.087668106 -0.18296239 0.12132597 0.22787495 -0.246506
0.1810794 0.038776234 0.023240292 0.2249268 0.22671486 0.10591657 0.19757368 0.104449816
0.04065352 -0.21957752 0.046674043 -0.1777753 0.076971345 0.043817207 0.0053020194 -0.17095265

weight f4 [32, 32]
00000000: 8377 dbbd 3fd0 053e cc6f b03d 4ce9 be3d
00000010: 1fc2 57bd b44a f9bc 9b90 39bd baf8 f83d
00000020: a649 9cbd 1109 e43d 0cc4 f93d 377b 25be
00000030: 8f09 8f3a 81c5 09bd a01f c8bd 4e50 9c3d
00000040: 8df1 afbc 4687 1e3e f899 e2bd cc43 a83d
00000050: 908d 1abe 1965 b5bd 8fd1 453c 3910 0f3e
00000060: 0abb be3d 5d9e 14be fe65 a03c 096b d5bd
00000070: f8f9 fa3b 80c9 16be 7454 54bd 855b f83d
00000080: 7f17 26be 8396 2cbe f5e2 033d f584 c63c
00000090: 606b 04bd 7a11 1e3e bffa d9bd 59c9 dbbd
000000a0: c14e 07be 61c4 06bd 12c8 38bd fe02 e03d
000000b0: f99f 22bc 983c 673d 9572 96bd 6dd7 123e
000000c0: af9a 183e 841d 22be 6d16 3abd 2d98 19be
000000d0: 28cf 993d 4f27 1ebe 192d abbd 9ade 343e
000000e0: dddb 2cbe 908e 053e 1db0 743c d5bf 103e
000000f0: 13bb b7bd 1dcc ed3d adb9 ae3c 1ac3 5e3c
00000100: 611a f73d 4b01 2cbe 78c9 11be 1dde 2e3e
00000110: 4163 d9bd 9a68 02be a50d 0dbc 68c7 67bd
00000120: 18b8 c5bc 888f f2bd 0711 833d c495 1bbe
00000130: 6ac7 6a3c e45e d33d d897 0b3d 846a c03c
00000140: a6bf d43c 7cf7 53bd a9aa 09bd bf84 98bd
00000150: ab6e f4bd 387c bfbd 752b 333e 59fb f0bc
00000160: 5eb1 7d3d 436a fa3d 7438 61bc 76c4 c2bd
00000170: 9a4b f5bd fa44 85bd e454 813d a66b 18be
00000180: a5d0 b0bc 30d9 893d 61bd 133e 5000 5a3d
00000190: c93d 0f3d 6ef1 f73d ee5b a73d 4701 753d
000001a0: fe56 60bd c128 11be 24cd 1bbd cca1 02bd
000001b0: 29c4 543c 3eeb 9ebc a693 923d c397 f03d
000001c0: f9a5 92bd 34bc 2bbe a0ad b9bd 8323 adbd
000001d0: c462 cd3d ea5d e9bd 6057 87bc 7bcd 18bd
000001e0: c1a8 dbbd 9a25 a43d 5eb8 96bd a7cb 15bc
000001f0: 348c febd aee2 91bc f804 ce3c 1e78 ebbb
00000200: 6146 87bd b274 573d e3e6 3abd e597 c8bd
00000210: 0578 05be 3007 19bd 09f6 2abe 5744 163e
00000220: 6dd9 acbd 1109 96bd 924c 893c f340 3d3d
00000230: c214 88bc 96a9 f83d 2cb7 d2bd f4ce 813d
00000240: 4fe0 9cb9 040a 13be 9b18 8cbd 73c1 383d
00000250: 5cf3 0a3d 68da 033e 9ba2 f23d 8ac9 c4bd
00000260: ff76 9abd 576a 19bd dc94 01be 6a6f 43bd
00000270: 6521 14be 06ee 893d 9535 003e 2816 673c
00000280: 9796 01be e63f 09be 1537 8dbd da73 523d
00000290: 2fe7 8c3b 1149 033d 898a 2a3e cb15 a83d
000002a0: a078 1b3d 277f 12bd 89d4 aa3d 3ac9 833d
000002b0: 98ef 22be 1eea d5bd 15ad bf3b 705f 893d
000002c0: ab10 b03d 8f91 d7bd 59a0 33be b005 18bc
000002d0: 7e97 a6bc 74b4 513d f984 47bd f627 0a3e
000002e0: d52f 3f3c 3022 043e 6d1d fcbd 38cd 903d
000002f0: 768e ac3c b212 b5bd d462 b33d 6520 32be
00000300: 2159 123e f79d 6a3c ff01 8d3c 4f8b a73d
00000310: d5b7 703c ce5d 9b3d 3a72 e63d e941 0dbe
00000320: af91 ef3d 4dd8 d8bc 7837 27bd 56f3 123d
00000330: 089e 0d3e 3c9c c4bd 14c5 f3bd 98b7 e03d
00000340: 1aeb a9bd 9ba7 693d 600d d5bc 5ebd 473d
00000350: ae3f 0a3e 342c b7bd c35e afbd ba2a b23d
00000360: 56db 1f3c 3f15 9fbc b1f7 1ebe a962 193e
00000370: ad6f dbbb 3518 05bd 666b 94bd 79ad 0ebd
00000380: 94f6 af3d 6109 7fbb 1009 1b3e 45cb 25bc
00000390: 6274 cfbc 12a2 cc3d 5b3c 93bb 9d66 10bd
000003a0: c055 723d e8c1 0e3e bbdb 363d c43d fd3d
000003b0: 33b7 ea3d 8d67 4d3d b5ce 7c3d 66bd 693d
000003c0: 4377 973c c433 1a3e 4731 273e ad38 813d
000003d0: 135b 0cbc db99 223e f19b 0cbe 0f88 053e
000003e0: 5912 c03d 5899 e83d 9f8c 5cbc 4f07 07be
000003f0: cd20 013e a613 9ebd 7f1e 3f3d 7247 cd3d
-0.107161544 0.13067721 0.086150736 0.093218416 -0.052675363 -0.030431129 -0.045303922 0.12156816
-0.07631235 0.11134542 0.12195596 -0.16160284 0.0010912883 -0.03363562 -0.09771657 0.076325044
-0.021477485 0.1548129 -0.110645235 0.08216056 -0.15093064 -0.088571735 0.012073888 0.13971032
0.093130186 -0.14513536 0.019579884 -0.10420806 0.007659193 -0.14725304 -0.051838353 0.12126831
-0.162199 -0.1685429 0.032198865 0.02423332 -0.032328963 0.15436354 -0.10643529 -0.107317634
-0.13213636 -0.032902125 -0.045112677 0.10938071 -0.009925836 0.05645427 -0.073460735 0.14339991
0.14902757 -0.15831572 -0.045431543 -0.14999457 0.07510215 -0.15444683 -0.08358211 0.17663041
-0.16880746 0.13042665 0.014934567 0.14135678 -0.089712285 0.11611197 0.021328771 0.0135963205
0.12065578 -0.16797368 -0.1423701 0.17076917 -0.10614634 -0.12735215 -0.00860921 -0.056586653
-0.024135634 -0.11843783 0.06399732 -0.1519385 0.014329771 0.10320833 0.034080356 0.02348829
0.025970291 -0.05174969 -0.03361002 -0.07447194 -0.11935171 -0.09349865 0.17497046 -0.029416727
0.06193673 0.12227299 -0.01374637 -0.09510128 -0.119773105 -0.06507297 0.0631502 -0.14884815
-0.021583864 0.06730878 0.14427711 0.053222954 0.034971032 0.12106596 0.08171831 0.05981567
-0.054770462 -0.14175703 -0.038037434 -0.031892583 0.012986221 -0.019399282 0.07157068 0.11747696
-0.07160563 -0.16771013 -0.090663195 -0.08454039 0.10028604 -0.11394866 -0.016521156 -0.037305336
-0.10725547 0.080149844 -0.07359384 -0.009142793 -0.124290854 -0.017808285 0.025148854 -0.00718595
-0.066052206 0.052601524 -0.045630347 -0.097945966 -0.13034065 -0.03736037 -0.16695417 0.14674507
-0.08439908 -0.07325948 0.016760144 0.04620452 -0.01661146 0.12141721 -0.102888435 0.06338301
-0.00029921762 -0.1435929 -0.068406306 0.045106363 0.03392349 0.12876284 0.11847421 -0.09608753
-0.07542228 -0.03745493 -0.12654442 -0.047713675 -0.14465864 0.067348525 0.1252044 0.014104404
-0.12655102 -0.13403282 -0.06895272 0.051380016 0.00430002 0.032052103 0.1665441 0.08207282
0.037956834 -0.035765793 0.08341319 0.06434865 -0.1591171 -0.10445045 0.0058494904 0.067076564
0.08596929 -0.1052581 -0.17541637 -0.0092787 -0.020335909 0.051197484 -0.048710797 0.13491806
0.011669119 0.12903666 -0.123103 0.07070392 0.021064024 -0.088414565 0.08759084 -0.1739517
0.14291812 0.014319888 0.017212866 0.08180868 0.0146922665 0.07586251 0.11252256 -0.13794674
0.11697709 -0.026470328 -0.040824383 0.035876594 0.13829815 -0.09600112 -0.11902824 0.10972518
-0.08296795 0.057044607 -0.026007354 0.04876458 0.13500854 -0.08943978 -0.08562996 0.08699556
0.009756884 -0.01941931 -0.15524174 0.14979042 -0.0066966624 -0.03249379 -0.07247047 -0.034833405
0.08591953 -0.0038915502 0.15140176 -0.010119264 -0.02532405 0.0999185 -0.004493279 -0.03525411
0.05916381 0.13941157 0.044643145 0.123652965 0.11460724 0.05014758 0.06172057 0.05706539
0.018489486 0.1505881 0.16327392 0.06309638 -0.008566636 0.15879004 -0.13731362 0.13040183
0.093784995 0.11357373 -0.013461261 -0.13186382 0.12610169 -0.077185914 0.046659943 0.10023393

bias f4 [32]
00000000: 958c 67bd 0977 19be 70b6 af3d 2ef2 ca3d
00000010: 79ff 253e 754b 81bd 9ad7 5c3d 41fa 013c
00000020: 316c e6bd fa53 e2bd 9c6f b93d 62ed cfbd
00000030: c5b4 033e 95f6 7c3d ff72 733d b201 ef3d
00000040: f585 ae3d 9f7a a13d 537b bb3d 70c4 98bd
00000050: b2bb c0bd f12a 03bd c3e3 ca3d d82d fd3d
00000060: bf59 053e e174 66bd 2945 b0bc c9a7 f8bd
00000070: 4d32 e13d ad1b f0bd 4c9a 96bd 4ea9 143e
-0.056530554 -0.14986815 0.08579719 0.09909473 0.16210736 -0.063132204 0.05391655 0.0079332
-0.112511046 -0.110511735 0.09054491 -0.10152699 0.12861927 0.061758596 0.05943584 0.11670245
0.08521644 0.07884716 0.091543816 -0.074593425 -0.094108 -0.032023374 0.09906723 0.123622596
0.13022517 -0.05626381 -0.021517353 -0.121413775 0.10995922 -0.11724029 -0.073536485 0.1451771

weight f4 [32, 32]
00000000: cbf5 2f3d 918f 97bd 60c9 f3bd f0f6 f8bd
00000010: 5616 123e d473 25be 926c 1c3e 26cf 103e
00000020: 3b76 333c 4327 68bc 60c8 0c3e 90a6 9f3d
00000030: e327 2b3e ca3a 123e 0b69 edbd cd6b df3d
00000040: 3e96 b63d a586 00be 81e0 ad3d 180c bcbd
00000050: 24b3 d7bd 6622 583b 88f3 b1bc e8b0 42bd
00000060: 7c6d edbd 840c c63d 2b7d 343e 3f71 20bd
00000070: a7ee f3bd 8e58 15bc 7d45 1dbe 70ff 12be
00000080: 97ad 71bd 7c78 e33d 3dda 0abe 56e9 e7bc
00000090: cd53 bdbd 27b2 26be e673 23bd f9a8 36bc
000000a0: 3a7b f3bc 8259 043e 727d 903d 4567 e13d
000000b0: d9b2 8d3d d2ef 973c e9c7 c33d 2c19 e7bd
000000c0: e0c7 b73d ef03 ab3d bbfa 99bd 64cc c6bb
000000d0: e208 09be be89 1ebe 6832 87ba a1ff fd3c
000000e0: 983d 1cbd d0a2 5f3d 3de4 0bbe 9b01 c7bd
000000f0: 9c50 f83d b829 30be b50f e33c 462c 0b3e
00000100: 39b5 073e 03ff 763d 01e4 24be 596e ba3c
00000110: baa0 7ebd 8f8b 4bbd 16b2 0a3e 7c12 76bd
00000120: 09a4 01be a54f 11be d995 e43d 21c1 0b3c
00000130: 55c9 323e 8813 143d 00b2 28be 6d24 333d
00000140: 03a4 253e 0f8c e03d bf49 593d 2400 08be
00000150: 4417 d9bd 56d4 f53d 7c14 f2bd ae2f 253d
00000160: c08a b9bc d19f 723d f382 3d3c 87e0 09be
00000170: be4f 90bd 2be2 1d3e 7778 aa3c d392 b73d
00000180: ee8a b6bd 614d 0f3e cafb 1abd 689a 73bd
00000190: 7e1f 143d 0998 81bd 6b2f 91bd 7e93 cabc
000001a0: 8753 25bc 2de9 cdbd e5f3 773d d570 2fbe
000001b0: ea41 de3d 8ce3 273e c348 ec3c 5def 28bd
000001c0: ddb1 25be f5a6 aa3d 4c7b 143e d3d0 1a3e
000001d0: b86f 813c cc0a 713d a6fd 2d3e f4f8 da3c
000001e0: 01c8 aebd 99d5 2bbe 38be 9e3d a007 8d3d
000001f0: a948 213e f14c b8bd e69e 9b3d 6643 6fbd
00000200: e494 33bd a43e d33d 96d2 25be 77bd 053e
00000210: 77f5 a93d 7feb d6bd 8563 b93d 26fb 30bd
00000220: f757 823c 31ce 41bd 43ee 30be 80fb 95bc
00000230: d7bf b03d fc7c a8bc 9c2c b1bd e377 bc3b
00000240: c550 053d ce12 47bd f802 0cbe 7fe7 c1bd
00000250: 0a83 ebbc 35c3 823d 6030 223e c512 873b
00000260: eea3 813d 0c69 d03d 38f9 9cbd d842 70bd
00000270: af21 f23d 7a9f 013e df01 2c3d 599b 0bbe
00000280: fd7c cd3d 919c 15be 7df4 b43d f39d ab3c
00000290: 6cde 693d be72 30be d192 7ebd 4abd 993d
000002a0: fd53 0b3e e64b 4fbd 886c 213e 9295 21bd
000002b0: c25c dabd 4bc7 9cbd 652f 343c 52b1 00bd
000002c0: 673a af3d e05d c8bd 8bfa 4dbd 7c64 33be
000002d0: 7dc1 133e 983e 08bd 9fb4 0ebe c5d4 0bbc
000002e0: c733 a9b9 c118 493d d0f7 9ebc c4be e33d
000002f0: 64d9 79bd 58b9 58bd 4df2 2bbd cb44 013d
00000300: d71c 113e a348 05bc 515f 0b3e d66d 0e3e
00000310: e04d bbbd ec58 77bc d66a aabd a58c 983d
00000320: da8e 7ebd 35e1 5c3d 09c1 303c 76aa edbd
00000330: 5a51 f3bd 5bce 30be ffae c9bd 31bf 4a3d
00000340: 7404 343c 95b4 083e 6fe5 1ebe 22d1 a6bb
00000350: 5740 22be f8ac 993a 25be 853d 5fbb 21be
00000360: 20de 1f3e cdbb 60bd 03ba 203e 0813 f3bc
00000370: 03e6 ce3d 6193 243e 0ea4 83bd 422a 2fbd
00000380: 63e6 bd3d ecf9 1abe 034d d63d bb66 e3bd
00000390: c71f 283e 8144 edbd a9fb 94bd f112 073e
000003a0: 79a0 9dbd 3429 1b3e f416 f93d 2974 253e
000003b0: 7375 2fbe 62d8 013b ab28 6ebd 557a 2c3d
000003c0: c9ad 08be 9574 943d 8735 09bc af21 abbd
000003d0: 7cd8 22be f45e bd3d 1006 83bd e391 053e
000003e0: 6de5 003d 9b38 5c3d 2ba2 dbbc a59a c8bc
000003f0: def9 75bd abbe 1cbe c59c e33d 96fd e3bd
0.042959016 -0.0740043 -0.119036436 -0.121564746 0.14266333 -0.16157466 0.15275791 0.14141521
0.010953481 -0.014169517 0.13748312 0.07795441 0.16714434 0.14280239 -0.11592301 0.10909233
0.08915375 -0.12551363 0.08490086 -0.09181994 -0.10532215 0.0032979487 -0.02172257 -0.047531992
-0.11593148 0.09670356 0.17625873 -0.0391705 -0.11910754 -0.009115351 -0.15358539 -0.14355254
-0.05900344 0.11106965 -0.13559814 -0.028309505 -0.09244499 -0.16278897 -0.03990545 -0.011148685
-0.029721845 0.1292477 0.07055177 0.11006025 0.06918878 0.018546972 0.09559614 -0.11284098
0.0897367 0.0835036 -0.07518526 -0.0060668457 -0.13382295 -0.15482232 -0.0010314705 0.031005682
-0.038144678 0.05459863 -0.13661285 -0.09717103 0.1212475 -0.17203414 0.02771745 0.13591108
0.13252725 0.060301792 -0.16102602 0.022757696 -0.062165 -0.04969364 0.13544497 -0.06007622
-0.1266023 -0.14190538 0.11161394 0.008529932 0.17459615 0.03615144 -0.16474152 0.04373591
0.16175847 0.10964214 0.053048845 -0.13281304 -0.10600141 0.120033905 -0.11820313 0.040328674
-0.022649169 0.059234444 0.011566865 -0.13464557 -0.070464596 0.15418307 0.020809395 0.08963551
-0.089132175 0.13994361 -0.03783778 -0.059473425 0.036162846 -0.063278265 -0.070891224 -0.024728533
-0.010090715 -0.100542404 0.06053533 -0.17132886 0.10852416 0.16395396 0.02884329 -0.0412439
-0.1618113 0.08332626 0.14500159 0.15118723 0.015800342 0.058848187 0.1699129 0.026730038
-0.085342415 -0.167807 0.07751125 0.0688622 0.15750374 -0.089990504 0.07598667 -0.058413886
-0.043843165 0.10314682 -0.16193613 0.13060556 0.08298772 -0.10494136 0.09052185 -0.043208264
0.015911086 -0.04731578 -0.1727839 -0.018308401 0.086303405 -0.02056741 -0.08651087 0.0057515963
0.03254773 -0.048601918 -0.13673007 -0.094679825 -0.028749008 0.06384889 0.15838766 0.0041221105
0.06330095 0.10176286 -0.07664722 -0.058657497 0.11822831 0.12658492 0.041993972 -0.13633479
0.10033605 -0.14610507 0.08835695 0.02094934 0.057096884 -0.1723127 -0.062151734 0.07506807
0.13606258 -0.05060949 0.15764058 -0.039449282 -0.106622234 -0.076551996 0.010997628 -0.031419106
0.08556061 -0.0978353 -0.050287765 -0.175188 0.14429279 -0.03326282 -0.13936089 -0.008534615
-0.0003227277 0.049095873 -0.019405276 0.1112037 -0.060998335 -0.052911133 -0.041979123 0.031559747
0.14171158 -0.008134994 0.13610579 0.13909087 -0.09145713 -0.015096884 -0.083211586 0.07448701
-0.062147953 0.05392571 0.010788211 -0.116047785 -0.11880751 -0.17266218 -0.09847831 0.04949874
0.01098739 0.13350137 -0.1551721 -0.0050908485 -0.15844856 0.0011724522 0.06530408 -0.15794133
0.15612078 -0.0548666 0.15695958 -0.02967216 0.10102465 0.16071846 -0.06427775 -0.04276491
0.092724584 -0.151344 0.104639076 -0.11103579 0.16418372 -0.11585332 -0.07274563 0.1319082
-0.07696623 0.15152436 0.12162581 0.16157593 -0.17134647 0.0019812812 -0.058144253 0.042108852
-0.13347544 0.07248799 -0.008374578 -0.08356034 -0.15902895 0.092466265 -0.06397641 0.13043933
0.031468797 0.05376492 -0.026810726 -0.024487803 -0.060052745 -0.15307109 0.11113886 -0.11132352

bias f4 [32]
00000000: 877e 0cbe fbba 42bc badc 07bd 59e3 8fbd
00000010: 2172 2c3e ceaa 4a3d 1100 b63d 6950 eebd
00000020: e9c6 003d d70d 483d e253 b63d b3a8 55bd
00000030: 0431 0ebd d2f7 12be efa5 e43d 526c f53d
00000040: 2b26 ac3d 3f1b b33d 59d9 d53d 3405 2c3e
00000050: 3d8e 6d3d 2219 813d 0bf8 7e3d 6473 ccbd
00000060: 4819 2f3d b461 613d 3515 10be 824b 56bd
00000070: 3960 dfbd f053 e7bd 798a f83d 3f8b 0f3e
-0.13720141 -0.0118854 -0.033169486 -0.07025785 0.16840412 0.0494793 0.088867314 -0.11636431
0.031439696 0.048841324 0.08902718 -0.052162837 -0.034714714 -0.14352348 0.11164462 0.11983551
0.084057175 0.08745431 0.104418464 0.1679886 0.057996977 0.06303622 0.06224827 -0.099829465
0.04274872 0.055024818 -0.1407059 -0.052318104 -0.10907025 -0.11295307 0.121357866 0.14017962

weight f4 [32, 32]
00000000: f7a1 c7bc 41ef 5d3d 0595 29bd 8884 193d
00000010: 5d6e f2bc 7656 bcbd 9652 98bd 08cf 333e
00000020: 881b f43c a0fb c5bd b963 a43c 4298 34be
00000030: c863 cc3a c9f5 0a3e 8f08 a73c ce84 2c3d
00000040: bd83 2abe d930 08bd 17a2 d53d 50b9 04be
00000050: 675d a9bd f1aa f43d 86f0 4f3d 523e a93d
00000060: bacd 28be 556b e63d 2dee 1dbd 242d 183d
00000070: 7251 123e f6d1 26be cc2a 4f3d 49a5 23be
00000080: fe03 063e 3d6e 543d aa22 a13c 3745 91bd
00000090: 489e 863d 0327 bcbd 5420 083d 5c04 183e
000000a0: b67d 08be 6295 4fbd 28ed 273d 4c5e fb3c
000000b0: 9151 1f3b 0bbc 1b3e 368f 3dbd 2bb0 363d
000000c0: b773 bf3d df04 0ebd 9d84 ec3d 1ae3 ea3d
000000d0: 3737 a13d 8447 32bd 3fbd 1c3e ac31 d1bd
000000e0: 8506 5f3d 4400 113d 6b89 ff3d 0d60 14be
000000f0: 2677 fc3c 9e7e d0bd 2e5f bf3d 0a2f 753d
00000100: edcf 0cbe 725d 34bc a08c 4a3d 6284 9a3d
00000110: 5e41 223e dde6 a23d 7a0f 0d3d b11f c13d
00000120: 2982 2abe 3e05 f23d 1946 a7bc 95e6 cc3d
00000130: 5659 4f3d e2bc 18bc 62bf ff3d ae68 d0bd
00000140: 2236 4d3d 14bf 9f3d dec6 80bd c928 853d
00000150: 350e 33be 92d0 b5bd aa51 b13d 149a ba3d
00000160: b1ea 25be b318 7b3d f32a 883c 7ab3 303e
00000170: 4290 30be b592 2cbd 955f ccbd 2f10 dabd
00000180: c685 ecbc e431 26be ecd1 0d3e 2655 7ebd
00000190: 9641 863d be1d d4bd 0465 4e3b 773d 00be
000001a0: 1c20 143e d6a2 193e f8ae 0f3e 147b 7dbd
000001b0: 0354 e13d fc3d 17be 30de a83d 0b9d 92bc
000001c0: 3c31 15be 0caf 0fbe 774c 29be 6bee 133d
000001d0: 79f0 82bd ec8c a3bd 5449 2e3e e39b 5cbd
000001e0: ab36 773d bae8 fbbc 8456 da3d 7613 583d
000001f0: b243 e53d ec11 3d3d 899e 1abd cc62 233e
00000200: 3c7b 4ebc e3dc d8bd c253 613d be15 b1bc
00000210: 469d 07be ff14 bc3c fb8d 2bbd dd2c 90bd
00000220: 2c94 aebd bdc8 9abd f579 93bd 454b 8e3c
00000230: 84e0 2e3e 1e34 d4bd 72e9 a9bd aba7 f5bd
00000240: 726c e5bb 02a7 413c ae92 f8bd aa1b a33d
00000250: b059 22be 9af4 263e 4062 053d ebf3 91bc
00000260: 662f 82bd 8546 a23d bc2f 043e 27ce ecbd
00000270: dc7e 35bd 2942 053e f733 09bd 818b 06be
00000280: 97b1 68bd 3b18 c83b f22c 07bd 871a f8bd
00000290: 7bd0 e2bd 48c8 433d c368 f83d 57ad 243e
000002a0: 1aaf a3bc a94b 8b3d f5c4 0fbe 22eb c03d
000002b0: 29f9 2c3e a687 bc3d a024 8fbd a996 133e
000002c0: 7a70 2bbe 13c6 adbc a968 33bd 8b8f 34be
000002d0: c888 cebd 5ce3 03be 679c 423d 8fea 70bc
000002e0: 5946 a63d 6be2 22bd b851 153e a007 a43c
000002f0: f30d 163e 16ff 123e 8683 19be 7722 f3bd
00000300: c910 da3d 2de1 2a3e b080 1abe f6e3 113b
00000310: 2623 91bd a60d 2a3e 1292 143e 11bf 033e
00000320: b9ed be3d 4211 8ebc a117 263e 816a a9bd
00000330: cf25 0f3c 6184 3ebd bf28 05be c105 b2bd
00000340: d2f0 2c3d df76 8bbc 55fd efbd 34cd cbbc
00000350: 0316 fa3c 47de ffbd a482 d73d 84e6 19be
00000360: 18d0 903a f261 14be 293c 23be 5ce4 b3bc
00000370: e549 243e 1b20 2b3e d37a 803d e593 093e
00000380: 71e8 c5bd cea9 cb3d 46e7 dc3d c735 2dbe
00000390: 2569 0cbe fffc 9b3d d436 7b3c 860e f5bd
000003a0: 68f4 0fbe a362 023e 79ea 993c c01d cdb9
000003b0: 7dfe 2ebe 3ad3 1e3e 9b95 f0bd 7ba6 9d3d
000003c0: fc1b b1bc e76c a53b e6ac b13d fe7b 46bd
000003d0: 6124 4bbd 6c93 0f3e 459a 0bbe 3f1c a13d
000003e0: a93a 3cbd 56a1 72bd da5a f23d 197c f43c
000003f0: 1f88 28be 58c3 213e c093 b4bd ceef 1a3e
-0.024369223 0.05418325 -0.04140188 0.037479907 -0.029593641 -0.091961786 -0.07437627 0.17559445
0.029798284 -0.09667134 0.020067083 -0.17636207 0.0015593702 0.13570322 0.020389823 0.04211884
-0.16651817 -0.03324971 0.10431307 -0.12961316 -0.08269768 0.11946667 0.05076649 0.0826384
-0.16484728 0.11250941 -0.03855722 0.037152424 0.14288881 -0.16291031 0.050577924 -0.1598102
0.1308746 0.051862944 0.01966985 -0.0709328 0.065731585 -0.091871284 0.033233956 0.14845413
-0.13329205 -0.050679572 0.040997654 0.030684613 0.0024310092 0.15208451 -0.046279155 0.0446016
0.09348243 -0.034672614 0.115487315 0.114690974 0.078718595 -0.043525234 0.15306567 -0.10214552
0.054449577 0.035400644 0.12477382 -0.14489765 0.030818533 -0.101804 0.09344326 0.059859313
-0.13751192 -0.011008607 0.049450517 0.07544781 0.15845248 0.0795419 0.034438588 0.09429873
-0.16651215 0.11817406 -0.020419167 0.100049175 0.050622307 -0.009322377 0.12487675 -0.10176216
0.050100453 0.07800117 -0.06287931 0.0650192 -0.17485888 -0.08877672 0.08658154 0.09111419
-0.16202809 0.061302852 0.016622042 0.17255965 -0.1724253 -0.0421321 -0.09979168 -0.10647618
-0.028872382 -0.1622997 0.1384961 -0.062092923 0.06555478 -0.10357235 0.0031493315 -0.12523447
0.14465374 0.15003523 0.14031589 -0.061884955 0.11002352 -0.14769739 0.08245504 -0.01789715
-0.14569563 -0.14031619 -0.16533075 0.036116045 -0.06393523 -0.07985863 0.1702016 -0.053859603
0.06035487 -0.030750621 0.10661033 0.052752934 0.111945525 0.04615967 -0.037748847 0.15955657
-0.012602624 -0.10589006 0.05501152 -0.021616813 -0.13243589 0.02295923 -0.04188345 -0.07039807
-0.08524355 -0.07557819 -0.07200996 0.017369876 0.17077833 -0.10361503 -0.08296479 -0.11994871
-0.007001453 0.011819603 -0.12137352 0.07964261 -0.15854526 0.16304246 0.0325644 -0.017816504
-0.06356697 0.07923607 0.12908834 -0.11562758 -0.044310436 0.1301352 -0.033496823 -0.13139154
-0.056809988 0.006106404 -0.033001848 -0.12114435 -0.11074921 0.047798425 0.12129357 0.16081749
-0.019980956 0.068015404 -0.14039977 0.09419848 0.16891922 0.092055604 -0.069894075 0.14412941
-0.16742125 -0.021212613 -0.043800984 -0.17632882 -0.10084683 -0.128797 0.04751244 -0.014704361
0.081188865 -0.03976671 0.14581954 0.020023167 0.14653759 0.1435512 -0.14991578 -0.11871808
0.10647733 0.1668746 -0.15088153 0.002226112 -0.07086782 0.16606769 0.14508846 0.12865855
0.09322686 -0.017342214 0.16219951 -0.08272267 0.008737042 -0.046512965 -0.13003825 -0.08692504
0.04222185 -0.017024456 -0.11718241 -0.024878122 0.030528074 -0.12493568 0.105229646 -0.15029341
0.0011048345 -0.14490488 -0.15940918 -0.021959476 0.16043814 0.16711466 0.06273427 0.13435324
-0.09663475 0.09944497 0.107862994 -0.16915046 -0.13711984 0.076166146 0.015332896 -0.11965661
-0.14058077 0.1273294 0.018788563 -0.00039122812 -0.17089267 0.15510264 -0.11747285 0.07697769
-0.02161979 0.0050483826 0.08675556 -0.048458092 -0.04959524 0.1402108 -0.13633068 0.07866716
-0.04595438 -0.059235893 0.11833735 0.02984433 -0.16458176 0.15797174 -0.088172436 0.1513054

bias f4 [32]
00000000: f9c6 11bd bb00 2a3d 76c8 a03c a38d 443e
00000010: 7747 ec3d 0322 f1bd 0fdb e43a da78 b13d
00000020: f9a5 0e3e 6f11 703d 4367 903d 63b0 05bd
00000030: bd72 163c 9191 fabd a594 293e b8b4 0b3e
00000040: e45a c7bd 87fa 1abe 7d11 063e 7f70 20be
00000050: 8973 ea3d ee51 30be e917 b9bd 0349 99bd
00000060: 7823 323e b30c f5bc e358 1b3e 9c42 893d
00000070: 4afc 403e 1eae 063e 108c 023e cb04 233e
-0.035590146 0.041504603 0.019626837 0.19194655 0.11537068 -0.11774065 0.0017460304 0.08665629
0.13930501 0.058610376 0.070509456 -0.03263892 0.009182629 -0.12234796 0.1656061 0.13643157
-0.09734133 -0.15134631 0.13092609 -0.15667914 0.11447818 -0.17218754 -0.090377636 -0.07484629
0.17396343 -0.029913282 0.15170626 0.06702158 0.1884624 0.13152358 0.12748742 0.15919797

weight f4 [1, 32]
00000000: f3ed 55bd 19ea 1abd 1bb9 703d 9e12 3c3e
00000010: 49ba 76bd 7564 0ebe fec9 09be 068b 96bd
00000020: aa91 3c3d 6e20 2fbc f0a2 0fbd 9940 a9bd
00000030: 2fba 4a3d d51b 15be f3cf 3c3e 1e53 c4bc
00000040: a61a 073d 0b87 6e3d 3341 60bd eadb 0e3e
00000050: f73c ae3c 9e98 6d3c c752 2cbe 6740 b33c
00000060: 4bf2 a13d fccb c93c 83b8 703b 9c9b 153e
00000070: 736b 2b3e ad4b 0b3e d051 8fbc f458 763d
-0.05222888 -0.03782091 0.05877028 0.18366477 -0.06023625 -0.13905509 -0.1345596 -0.07350735
0.046037354 -0.010688884 -0.0350675 -0.08264274 0.049493965 -0.14561398 0.18438701 -0.023965415
0.0329844 0.058234256 -0.05474968 0.13951078 0.021269305 0.014501719 -0.16828452 0.021881295
0.07907542 0.0246334 0.0036731071 0.14610142 0.16740207 0.13603087 -0.017495066 0.060143426
